data.pth (torch, 9111 bytes, 6 tensors)

l1.weight f4 [8, 121]
000000 c4 69 00 3f ec 68 57 3e 7a f8 19 be df ea f3 3e
       0.50161386 0.21036118 -0.15036193 0.4764013
000010 41 2c 43 be bb 55 75 be a5 ab f8 bd 77 9d 19 3f
       -0.1905985 -0.23958485 -0.121421136 0.600059
000020 54 73 29 bf 5c 88 8a bf 88 2f 4a bf 35 13 27 3f
       -0.661916 -1.0822864 -0.78978777 0.6526368
000030 5c 1c 87 3c e5 1b 86 3f cd 15 53 bd ce 1b db bd
       0.016493015 1.0477263 -0.051534463 -0.10698663
000040 09 a0 86 3f 49 b0 0b bf 78 1f 20 3e 54 eb c4 be
       1.0517589 -0.54565865 0.15637004 -0.3846079
000050 d9 aa ef bd 57 40 36 3f 14 b8 20 bf f8 74 a0 be
       -0.117025085 0.71191925 -0.6278088 -0.3133924
000060 06 a7 50 3f c4 78 04 3f 19 84 e9 bd 68 02 3d 3f
       0.8150486 0.51746774 -0.11402149 0.73831797
000070 24 85 07 bf 12 ff 62 bd 8e 8f 37 3e 6d d2 84 3e
       -0.5293753 -0.055419035 0.17925856 0.25941792
000080 16 ec 2c 3f e9 d7 4d 3f d5 ff 65 be 06 8a 90 3f
       0.6754774 0.8040758 -0.22460873 1.1292121
000090 7f bb 6e 3f 9e 2e 20 3f 0d c4 73 3f ae 6b 10 3f
       0.93254846 0.6257113 0.95221025 0.56414306
0000a0 27 04 1f be e0 c5 cd bd c2 33 48 be 5b c8 ba 3e
       -0.15528928 -0.10047507 -0.19550994 0.36480984
0000b0 3c f5 66 be 3c 9d 1a be 2f bd 4c bf 35 ce 2b 3f
       -0.22554487 -0.15099043 -0.7997617 0.6711152
0000c0 bc e6 39 bf e2 d9 1a 3f a1 18 40 bf 76 f8 77 3f
       -0.726177 0.6048871 -0.7503758 0.96863496
0000d0 8a b1 9e 3e 06 af 3b bf 0b 7a a6 3f c0 52 ad 3e
       0.30994827 -0.7331394 1.3005995 0.33852196
0000e0 08 60 1a 3e bf 7f 6f 3f 74 fd 1d 3f d9 cd 48 3f
       0.15075696 0.935543 0.61714864 0.784391
0000f0 da a6 6d 3f 7d fd 84 3f d3 c9 3a 3f 41 a0 f4 bd
       0.9283272 1.0389858 0.7296421 -0.119446285
000100 6b 5c 44 3f ad f5 aa 3d db 24 86 be e3 9b b2 3e
       0.7670352 0.0834764 -0.26199993 0.34884557
000110 1f 19 25 bf b1 10 34 be 5e 1f 8d 3f 5a 16 04 3f
       -0.64491457 -0.17584492 1.1025198 0.51596606
000120 42 43 8c 3d be 47 59 bf 53 bc 40 bf 86 06 75 bf
       0.06848766 -0.84875095 -0.7528736 -0.9571308
000130 3a 90 01 3f ec d3 2d bd e2 78 37 be 03 61 41 3f
       0.506107 -0.042438433 -0.17917207 0.75538653
000140 ba 4d 1a bf 19 55 2d bf 87 06 a1 bf 80 04 7a 3f
       -0.6027485 -0.67707974 -1.2580117 0.97663116
000150 8d 87 19 bf dd 3f 73 3f df 81 60 3f 42 54 10 be
       -0.5997246 0.9501932 0.8769817 -0.14094642
000160 64 77 86 bf ba 6d b4 3f 89 2f ae bf 4f 55 31 3f
       -1.0505185 1.4095986 -1.3608257 0.69270796
000170 e1 c4 5d bf 94 6b 91 bf cb 22 57 3f 85 04 6f bf
       -0.8662854 -1.1360955 0.84037465 -0.9336627
000180 4d 5f f8 3e 2e 2d e4 3e 64 34 26 3f 7b 59 98 3e
       0.4851021 0.4456572 0.6492369 0.29755768
000190 1b da 80 be a7 03 e8 3e dc 5b 33 3f 10 d7 81 be
       -0.251664 0.45315287 0.7006204 -0.25359392
0001a0 19 62 90 bd c6 72 0a 3f 2b 26 3a 3f e4 a4 1e 3f
       -0.07049961 0.5408138 0.7271449 0.61970353
0001b0 d4 36 11 3f 69 fa af bf 38 7e 55 bd 65 87 28 3f
       0.56724286 -1.3748294 -0.052122325 0.65831596
0001c0 39 90 6e bf 48 a6 68 3e 79 7b 0f 3e 41 43 94 3e
       -0.93188816 0.22719681 0.14011945 0.2895756
0001d0 87 a2 10 3e f6 79 2b 3f a8 06 29 be b7 e6 e1 be
       0.141245 0.6698297 -0.16506445 -0.44121334
0001e0 c3 ac 19 bf 95 e5 0a be 12 33 15 3f de b8 c7 3d
       -0.6002924 -0.13564141 0.5828105 0.097520575
0001f0 fe c7 a5 3d b8 3f be 3f f4 04 32 3e 38 3d 34 bd
       0.08094786 1.4863195 0.17384702 -0.044003695
000200 1b d8 91 bd 65 13 a2 3f cd bb 4b 3f e2 0f 19 be
       -0.07121297 1.2662169 0.79583436 -0.14947465
000210 30 b5 b0 3f 39 99 a1 3e 51 07 20 bf 1b a6 4c 3f
       1.3805294 0.31562212 -0.62511164 0.79940957
000220 db a2 72 3e fa e8 18 bf 42 86 3c bf 91 51 8e 3f
       0.23694937 -0.59730494 -0.7364236 1.1118642
000230 ad b2 5c bc 98 b9 c4 3f cd 91 e3 3d 53 92 41 3f
       -0.013470334 1.5369139 0.11111794 0.756139
000240 22 74 d8 3e fd 89 25 bf 73 d5 0d be 10 4e 49 3f
       0.42276102 -0.6466368 -0.13850956 0.7863474
000250 13 9c 71 3e fe 48 60 bf c5 c2 55 bf ac 10 77 3f
       0.23594694 -0.8761138 -0.8350032 0.96509814
000260 70 4e c1 bc 58 63 03 bf 8c 89 57 be c1 1f 85 3f
       -0.023596972 -0.5132346 -0.21048564 1.0400316
000270 da b0 05 bf 6d 25 3d 3f a2 4c bd 3f c0 34 38 bf
       -0.5222298 0.7388523 1.4789011 -0.7195549
000280 08 48 53 be dd 00 b2 3f e2 c2 29 be 50 30 ae 3f
       -0.20632946 1.3906513 -0.16578248 1.3608494
000290 cf ec fc 3e 19 59 af 3f a8 0c e8 3c ff 1b 85 bf
       0.4939942 1.3699065 0.028326347 -1.0399169
0002a0 0b 3f e5 3e 80 74 91 3f cc 74 24 be 1f 98 89 bf
       0.4477466 1.1363678 -0.1606018 -1.0749549
0002b0 98 86 07 3f f3 27 69 bf a4 f1 c2 3e 34 da 08 3f
       0.5293975 -0.9107658 0.38074982 0.5345795
0002c0 b2 f4 06 be 92 b5 88 3f 03 72 10 bf 31 ba 46 be
       -0.13179281 1.0680411 -0.5642397 -0.19406964
0002d0 50 5d 9d 3e 98 7a 38 bf f2 39 38 bf 0e f9 41 be
       0.30735254 -0.72062063 -0.7196342 -0.18942663
0002e0 81 21 10 3f b4 e4 9b 3e 0f 0c 18 bf 46 8a d6 3e
       0.5630112 0.30447924 -0.593934 0.4190237
0002f0 8f 62 ef 3d 9e e9 50 bf b8 24 ab 3f 91 e8 35 bf
       0.116887204 -0.8160647 1.3370581 -0.71057993
000300 5f e3 95 bd 1e 59 9b 3e 5f 4a 8f 3f f3 db 9a 3f
       -0.07318758 0.3034143 1.1194571 1.2098373
000310 33 4c cc 3a 49 fa 8f 3f d3 ca 84 bf 78 a5 4f 3f
       0.0015586674 1.1248256 -1.0374397 0.8111186
000320 63 97 44 3e 69 fd 88 bf e7 00 ac be ed 1b fc be
       0.19198374 -1.0702335 -0.33594438 -0.49240056
000330 cd 0e 38 bf ca c8 eb 3e 54 39 34 3f 73 af 17 bf
       -0.71897584 0.46051627 0.70399976 -0.5925209
000340 ee ee 67 3e 90 3d b8 3f 30 25 73 bf 46 48 c7 3f
       0.22649738 1.4393787 -0.9497862 1.5568931
000350 3d 8c b6 be 2b aa b1 3c 70 05 9f 3f 17 ea 8e bd
       -0.35653868 0.021687588 1.2423534 -0.06978243
000360 a9 4a a1 3f bc e0 b6 bd 0a d8 05 be ad bb 23 be
       1.260091 -0.089295834 -0.13070694 -0.15989561
000370 36 9c 17 3f 98 01 9e 3f f9 e6 b8 bd 3e 84 36 bf
       0.59222734 1.2344236 -0.090284295 -0.71295536
000380 70 c6 bb 3e 0b 03 dc 3e b0 c6 15 3d 46 62 54 bd
       0.36674833 0.42971072 0.036566436 -0.051851533
000390 b7 b9 d8 be b0 b9 1a bf f0 34 79 3f 9f 32 c2 3e
       -0.4232919 -0.60439587 0.973464 0.37929246
0003a0 dc 03 c5 be 0e cb 85 3f 9c 21 66 bf ee 20 87 3e
       -0.38479507 1.0452592 -0.89895034 0.2639231
0003b0 a1 41 70 bf dd 22 ce 3e 15 d1 c0 3f 5f f0 b2 3f
       -0.9385014 0.40260974 1.5063807 1.3979605
0003c0 68 a8 07 3f 41 3e 94 bd 58 26 67 be 37 92 67 3f
       0.5299134 -0.072384365 -0.2257322 0.9045748
0003d0 e9 69 e8 3e 9c df 9e bd c6 0e bb be 79 30 34 bf
       0.45393303 -0.07757494 -0.3653471 -0.70386463
0003e0 83 37 43 bd 70 e1 6f be bb 58 79 bd e4 6d 3f bf
       -0.047660362 -0.23425841 -0.060875636 -0.74777055
0003f0 c6 80 34 bf a5 bd 63 3e ea 44 6c be 66 1d 25 bf
       -0.7050899 0.22240312 -0.23073164 -0.64497983

l1.bias f4 [8]
000000 73 d0 af 3f 66 8d 36 3f 72 00 25 3f 42 ce 5f 3f
       1.3735489 0.71309507 0.64453804 0.874241
000010 5b b9 33 3f a8 1d 26 3f b7 e6 e7 3f 50 a6 65 3f
       0.70204705 0.64889 1.8117284 0.897069

l2.weight f4 [8, 8]
000000 95 12 97 be d1 be 18 40 e1 4e 2d 3e f9 b5 32 3f
       -0.29506364 2.3866465 0.16924621 0.6980892
000010 87 f2 17 3f f1 89 ea 3f 8e ec cf 3d da 6c 38 bf
       0.5935444 1.8323346 0.10152541 -0.72041094
000020 cf a6 28 40 bc 71 b6 3e 53 ee 3e 3f be 50 ba bf
       2.6351812 0.35633647 0.74582404 -1.455589
000030 5c 57 d0 bf 01 98 71 3f f8 32 a4 3f 4f 77 98 3f
       -1.627666 0.94372565 1.2828054 1.191141
000040 0c 4b 40 40 e2 a5 5b bf e1 71 0c bf 38 fa 17 40
       3.0045805 -0.8579999 -0.54861265 2.3746471
000050 70 94 22 be 61 1c 1f bf f8 00 a5 3f 6a 9f 3e bf
       -0.15876937 -0.6215268 1.2890921 -0.74461997
000060 39 3e 20 3f 01 79 eb bf e2 e0 b5 3e ff a9 b1 3e
       0.62594944 -1.8396302 0.35523134 0.3470001
000070 98 2d bc 3f 8e f9 f7 bf fc 5f 82 3f af 52 7e 3f
       1.4701414 -1.9373033 1.0185542 0.99344915
000080 c8 81 d3 bf f2 f7 f8 3f 53 17 f7 bf fc 9e e1 3e
       -1.6523981 1.9450667 -1.9303993 0.44066608
000090 5c 98 c9 3f 26 4d de bf 79 1a ce 3f 1f 40 a7 3f
       1.5749621 -1.7367294 1.6101829 1.3066443
0000a0 7a 9a 32 bf 44 22 9f 3f b9 b2 7a 40 42 fe cd 3e
       -0.6976696 1.2432332 3.9171584 0.40233046
0000b0 36 92 e9 3f 46 52 e9 3f bc 39 56 3e dc 6a be 3f
       1.8247745 1.8228233 0.20920461 1.4876361
0000c0 af 7c 3c 3f 59 40 3a 3f 4a 1d e3 bf fd 8f bf bf
       0.7362775 0.72754437 -1.7743313 -1.4965817
0000d0 06 f4 9b bf e5 b8 ea bd 8c bd 03 40 d3 cc a4 3f
       -1.2183845 -0.11461047 2.058444 1.2875007
0000e0 68 58 ca 3e 8b 9d 77 3f d0 44 5f be 80 fc 97 3d
       0.39520574 0.96724766 -0.21803594 0.074212074
0000f0 e0 1a 1f bf cb 02 51 3f 0f 04 bc 3d fe 3b 52 bf
       -0.62150383 0.81644887 0.091804616 -0.8212279

l2.bias f4 [8]
000000 ef 4e 81 3f aa d0 5f 3f 53 80 7a 3f 69 8f 5c 3f
       1.0102214 0.8742777 0.9785206 0.86156327
000010 d0 b3 43 3f 11 a1 78 be 0b fd fa 3e 4b 0a dd 3e
       0.7644625 -0.24280192 0.4902118 0.43171915

l3.weight f4 [31, 8]
000000 f1 3e 26 be 92 07 e2 be d0 ad 65 c0 c4 9c cf be
       -0.16234948 -0.441464 -3.5887337 -0.4054929
000010 9c 81 10 3f 13 8b fa 3d 63 be c8 be c1 01 0d c0
       0.5644777 0.122335576 -0.39207754 -2.203232
000020 23 11 b1 bf cd 20 09 3f 41 06 6e c0 0d 94 38 be
       -1.3833355 0.53565675 -3.7191317 -0.18025227
000030 68 37 4a 3e 4c aa 60 be 2f 0b de 3e 1f 9f 88 bf
       0.19747698 -0.21939963 0.43367907 -1.067356
000040 97 fc f0 bf ea 59 80 bf be ff 1e bf 6b e7 5e 3f
       -1.8827084 -1.002744 -0.6210898 0.87071866
000050 20 65 84 3e 8b 66 a9 bd 81 09 57 bf af 09 95 bf
       0.25858402 -0.08271512 -0.83998877 -1.164358
000060 66 9a 0a bd 07 ae 81 be 31 b0 f8 bf 80 8b 14 c0
       -0.033838652 -0.25328085 -1.9428769 -2.3210144
000070 60 42 d6 3e d8 01 94 be e3 47 a5 3e 07 c1 3c 3e
       0.41847515 -0.28907657 0.32281408 0.18433009
000080 21 4d 1a bf 1c 16 50 3f 77 bc f3 bf b9 f5 cf bf
       -0.6027394 0.81283736 -1.904189 -1.6246864
000090 21 24 2c c0 32 e1 b1 3e 2e 3c 95 3e 0d 68 2c bf
       -2.6897051 0.34742123 0.29147476 -0.6734627
0000a0 8e 6a 5a 3f c0 fd 04 bf 0d 22 a7 bf f1 05 08 c0
       0.8531884 -0.5194969 -1.3057266 -2.1253626
0000b0 af da 85 bd 67 dd 83 bf b5 a1 66 bf 34 13 4f 3f
       -0.06535851 -1.0301942 -0.90090495 0.80888677
0000c0 e2 bf 01 3f b5 b4 c2 bf 5f 07 3d c0 c1 06 b8 bf
       0.50683415 -1.5211397 -2.953575 -1.4377061
0000d0 e0 01 22 c0 d1 30 2a 3f e1 3d 8d bf fe f7 fe 3d
       -2.5313644 0.6648074 -1.1034509 0.124496445
0000e0 e6 38 65 c0 df 62 58 3f 7c 0a f2 3d 50 a8 41 3f
       -3.5815978 0.84525865 0.11818406 0.7564745
0000f0 04 e1 0a bf b1 5a 20 c0 7c fc 5f 3f 51 50 b4 bf
       -0.54249597 -2.5055354 0.87494636 -1.4087011
000100 d6 8c 29 bf f8 f9 05 3f ba 9d c7 be 31 d8 fc bf
       -0.66230524 0.5233455 -0.38987523 -1.9753476
000110 f8 e4 56 bf cd 55 12 be b2 95 7e 3e d8 44 3b be
       -0.8394313 -0.14290543 0.24861792 -0.1828798
000120 f3 29 2e bf fc 8f 03 3f b8 bf 12 3f 04 9d 80 3e
       -0.6803276 0.5139158 0.5732379 0.25119793
000130 8e 99 1b c0 94 57 36 c0 41 57 0d 3f 18 07 8e bc
       -2.4312472 -2.8490953 0.55211264 -0.017337367
000140 5b 01 0d 3d 58 9f c9 3e c7 15 28 3f 8a 52 1d c0
       0.03442512 0.39379382 0.6565823 -2.4581628
000150 af 2e 3c c0 25 c3 31 bf a1 a1 a9 bf 57 c7 89 3d
       -2.9403493 -0.6943839 -1.325245 0.06727474
000160 e0 3e 33 bf d4 18 01 3f 30 ee 44 bf 85 62 f2 bd
       -0.70017815 0.5042851 -0.76925945 -0.11835197
000170 e9 f0 ae 3e a6 3b b6 bf e8 b7 1c 3f 04 c2 4a be
       0.34168175 -1.4236953 0.6121812 -0.19800574
000180 4e 6f 92 be 18 b1 45 be 8a fc e8 3e 61 69 a1 be
       -0.28600544 -0.19305837 0.45505172 -0.3152571
000190 38 cf 30 3e 11 29 9d bf 86 08 43 bf ba a4 cd 3e
       0.17266548 -1.2278157 -0.7618488 0.4016474
0001a0 24 7b 61 bf ef e3 91 bd 8c 06 25 3f 78 89 3a 3f
       -0.8807852 -0.07123553 0.64463115 0.7286601
0001b0 f5 58 1f c0 a5 41 26 bf 5b 57 a2 bf 7d 81 ad bf
       -2.4898045 -0.64943916 -1.2682909 -1.3555142
0001c0 38 14 6b bf 4a f8 6e c0 94 4c c9 be fb 61 24 3f
       -0.91827726 -3.7339044 -0.39316237 0.64212006
0001d0 04 94 05 3f 6c 91 62 3d 94 6e 67 c0 9c 07 aa bf
       0.5217898 0.055314466 -3.6161242 -1.3283572
0001e0 66 74 88 bc 9f 2e 86 bf 36 96 05 bf 24 8c c2 be
       -0.016657066 -1.0482978 -0.5218233 -0.37997544
0001f0 8a cc 48 3e 43 65 a3 3d 8e bc 14 c0 cd 82 09 bf
       0.19609275 0.079782985 -2.3240085 -0.5371521
000200 cc 74 52 bf 47 1c 6e 3f 08 5f 0f 3d 66 8f 4a c0
       -0.8220947 0.930119 0.03500274 -3.1650023
000210 ce d5 3f c0 10 96 a1 bf 0d dc 47 3f b8 5f f6 3e
       -2.9974246 -1.262392 0.78070146 0.48119903
000220 bc 68 1d bf 24 68 f7 bf 09 e5 86 3f 55 e4 0f 3f
       -0.61487937 -1.9328656 1.0538646 0.5620778
000230 da ee 26 be e6 c1 7f bf b4 ef 4d c0 73 c3 d7 bf
       -0.16302052 -0.9990524 -3.2177553 -1.6856521
000240 ca 7c f6 bf 41 cd 04 3f 05 4d a9 be 9f 4a 32 3e
       -1.9256833 0.5187569 -0.33066574 0.17411278
000250 1c 2c e8 bf 7d 45 6d be 0f 32 a7 3e d5 f7 fb bf
       -1.8138461 -0.23171039 0.3265538 -1.9685007
000260 32 16 16 3f 32 f3 1c c0 2f 10 17 c0 16 f0 09 c0
       0.5862762 -2.4523435 -2.3603628 -2.1552787
000270 85 f0 1f 3f 50 fd 21 bd 5b 42 06 c0 eb 50 d8 3e
       0.6247638 -0.03954822 -2.0978 0.42249236
000280 61 3e 03 3e c2 46 34 3f 40 d4 97 c0 33 9f 0c c0
       0.12816764 0.7042047 -4.7446594 -2.1972167
000290 72 46 75 bf b8 03 28 be 25 cf f6 3e a6 95 27 3f
       -0.95810616 -0.16407669 0.48204914 0.6546272
0002a0 ad 79 3f bf 79 12 2a bf 93 50 63 bf 99 5a 89 be
       -0.7479504 -0.6643444 -0.8879482 -0.26826933
0002b0 96 97 d1 be 56 86 cd bf 53 df 4f bf d1 1b 6f bd
       -0.40935963 -1.6056621 -0.8120014 -0.058376137
0002c0 5e a2 19 c0 c3 a1 0f bf d9 e0 26 c0 69 3c 73 3f
       -2.400535 -0.56106204 -2.6074736 0.95014054
0002d0 b1 09 0f 3f 0f 99 24 bf 5f f8 91 3e 82 75 68 be
       0.5587416 -0.6429605 0.28509805 -0.22701076
0002e0 97 02 25 3e f5 f4 a5 3e e0 25 5f c0 f4 f6 c4 bf
       0.16114269 0.3241345 -3.4866867 -1.5387864
0002f0 3c 1e a5 be 64 eb b3 3e 57 9a eb bf 43 44 0c bf
       -0.3224963 0.35140526 -1.8406476 -0.5479166
000300 29 ec 53 bf d0 6a 46 bf 13 a5 7c c0 d3 f6 9e 3f
       -0.82782227 -0.7750673 -3.9475753 1.2419075
000310 f6 1d 1b 3f cd 6d 5b bc f2 ad f7 bf e6 a1 cd be
       0.6059259 -0.013392878 -1.9349959 -0.4016258
000320 4e cd 8c bf 83 a2 6b be ea 19 a7 3f f8 0e 49 3f
       -1.1000154 -0.23011212 1.3054783 0.78538465
000330 04 db bb bf 3f 59 56 c0 60 41 a4 bf c5 f6 2c bf
       -1.4676213 -3.3491971 -1.2832451 -0.6756404
000340 8d 2b bf be 81 71 c0 bf 94 5f 3e bf 4f f6 7d be
       -0.37337914 -1.5034639 -0.7436459 -0.2480099
000350 3d 10 1e 3f 11 ab 7f be ba 62 1b be ea f9 d1 bf
       0.6174353 -0.249676 -0.1517438 -1.6404393
000360 01 57 1d bf 75 ae 77 3c 6b 87 ea be a4 6a 37 bf
       -0.6146088 0.015117277 -0.4580644 -0.71647096
000370 4d 27 01 c0 43 c4 12 3f 9c 18 02 c0 72 93 80 bf
       -2.0180237 0.5733072 -2.032752 -1.0044997
000380 4a ad 26 3f cc 2d 26 c0 3f f1 2a bf 4a 20 9f bf
       0.6510817 -2.5965452 -0.6677436 -1.2431729
000390 93 be fb bf d7 b7 1e 3e 19 40 b0 bf 0c dd 94 3e
       -1.9667534 0.15499817 -1.3769561 0.29074895
0003a0 8a 1a cb bc f3 19 79 c0 44 02 ad 3e 23 0f 77 3e
       -0.024792928 -3.8922088 0.3379079 0.24126868
0003b0 94 ac 30 3f d5 44 8e bf ef 14 92 bf 59 12 12 3f
       0.69013333 -1.1114756 -1.1412638 0.57059246
0003c0 c5 df dc bf 67 c7 56 3c f2 7b d7 bc 0e 62 d7 3e
       -1.7255789 0.013109065 -0.026304219 0.42066997
0003d0 a8 78 44 3e 0d 50 55 bf 6a 46 80 3e 9b 74 d8 bf
       0.19186652 -0.8332527 0.25053722 -1.6910585

l3.bias f4 [31]
000000 b9 73 f8 be 50 67 3b bf 2b cd ce be 0d e7 2e be
       -0.4852579 -0.7320452 -0.40390906 -0.17080326
000010 64 fe 15 bf 81 c9 37 3e 9a 4e 89 3e 07 4f 04 bf
       -0.58591294 0.17947961 0.2681778 -0.51683086
000020 8d e5 4a 3d 9a 9e ae 3e f7 43 8d 3d cb 29 d8 3c
       0.049535323 0.34105378 0.06897729 0.026387116
000030 42 9a 21 3e d1 26 e1 3e 3c c1 8a be 6b 93 0c 3e
       0.15781501 0.43974927 -0.2710055 0.1372811
000040 7b c1 8e be 4f bd fc 3d 09 f8 6b be ee b9 ce 3e
       -0.2788199 0.12340795 -0.23043837 0.40376228
000050 37 c4 6e 3e da dc 37 bf d8 f0 a0 be 0f bb 8a 3e
       0.23317038 -0.7182137 -0.3143375 0.2709584
000060 65 69 48 3e ae 8f d3 3d 89 e8 d7 be 59 98 bd 3e
       0.19571455 0.10330139 -0.42169598 0.37030295
000070 0e e4 ba 3e e0 60 35 3e 7b e7 00 bf
       0.36502117 0.17712736 -0.5035321
